…
:35<00:00, 14.8MB/s] 97%|█████████▋| 321M/331M [00:36<00:00, 14.8MB/s] 98%|█████████▊| 322M/331M [00:36<00:00, 14.8MB/s] 98%|█████████▊| 324M/331M [00:36<00:00, 14.8MB/s] 98%|█████████▊| 325M/331M [00:36<00:00, 14.8MB/s] 99%|█████████▉| 327M/331M [00:36<00:00, 14.8MB/s] 99%|█████████▉| 328M/331M [00:36<00:00, 14.8MB/s]100%|█████████▉| 330M/331M [00:36<00:00, 14.8MB/s]100%|██████████| 331M/331M [00:36<00:00, 9.44MB/s]
SpeechRecognitionModel(
  (conformer): Conformer(
    (encoder): ConformerEncoder(
      (conv_subsample): Conv2dSubampling(
        (sequential): Sequential(
          (0): Conv2d(1, 512, kernel_size=(3, 3), stride=(2, 2))
          (1): ReLU()
          (2): Conv2d(512, 512, kernel_size=(3, 3), stride=(2, 2))
          (3): ReLU()
        )
      )
      (caps_net): CapsNet(
        (conv_layer): ConvLayer(
          (conv): Conv2d(1, 512, kernel_size=(9, 9), stride=(1, 1))
        )
        (primary_capsules): PrimaryCaps(
          (capsules): ModuleList(
            (0): Conv2d(256, 32, kernel_size=(9, 9), stride=(2, 2))
            (1): Conv2d(256, 32, kernel_size=(9, 9), stride=(2, 2))
            (2): Conv2d(256, 32, kernel_size=(9, 9), stride=(2, 2))
            (3): Conv2d(256, 32, kernel_size=(9, 9), stride=(2, 2))
            (4): Conv2d(256, 32, kernel_size=(9, 9), stride=(2, 2))
            (5): Conv2d(256, 32, kernel_size=(9, 9), stride=(2, 2))
            (6): Conv2d(256, 32, kernel_size=(9, 9), stride=(2, 2))
            (7): Conv2d(256, 32, kernel_size=(9, 9), stride=(2, 2))
          )
        )
        (digit_capsules): DigitCaps()
        (decoder): Decoder(
          (reconstraction_layers): Sequential(
            (0): Linear(in_features=160, out_features=512, bias=True)
            (1): ReLU(inplace=True)
            (2): Linear(in_features=512, out_features=1024, bias=True)
            (3): ReLU(inplace=True)
          )
        )
      )
      (input_projection): Sequential(
        (0): Linear(
          (linear): Linear(in_features=9728, out_features=512, bias=True)
        )
        (1): Dropout(p=0.1, inplace=False)
      )
      (layers): ModuleList(
        (0): ConformerBlock(
          (sequential): Sequential(
            (0): ResidualConnectionModule(
              (module): FeedForwardModule(
                (sequential): Sequential(
                  (0): LayerNorm((512,), eps=1e-05, elementwise_affine=True)
                  (1): Linear(
                    (linear): Linear(in_features=512, out_features=2048, bias=True)
                  )
                  (2): Swish()
                  (3): Dropout(p=0.1, inplace=False)
                  (4): Linear(
                    (linear): Linear(in_features=2048, out_features=512, bias=True)
                  )
                  (5): Dropout(p=0.1, inplace=False)
                )
              )
            )
            (1): ResidualConnectionModule(
              (module): MultiHeadedSelfAttentionModule(
                (positional_encoding): PositionalEncoding()
                (layer_norm): LayerNorm((512,), eps=1e-05, elementwise_affine=True)
                (attention): RelativeMultiHeadAttention(
                  (query_proj): Linear(
                    (linear): Linear(in_features=512, out_features=512, bias=True)
                  )
                  (key_proj): Linear(
                    (linear): Linear(in_features=512, out_features=512, bias=True)
                  )
                  (value_proj): Linear(
                    (linear): Linear(in_features=512, out_features=512, bias=True)
                  )
                  (pos_proj): Linear(
                    (linear): Linear(in_features=512, out_features=512, bias=False)
                  )
                  (dropout): Dropout(p=0.1, inplace=False)
                  (out_proj): Linear(
                    (linear): Linear(in_features=512, out_features=512, bias=True)
                  )
                )
                (dropout): Dropout(p=0.1, inplace=False)
              )
            )
            (2): ResidualConnectionModule(
              (module): ConformerConvModule(
                (sequential): Sequential(
                  (0): LayerNorm((512,), eps=1e-05, elementwise_affine=True)
                  (1): Transpose()
                  (2): PointwiseConv1d(
                    (conv): Conv1d(512, 1024, kernel_size=(1,), stride=(1,))
                  )
                  (3): GLU()
                  (4): DepthwiseConv1d(
                    (conv): Conv1d(512, 512, kernel_size=(31,), stride=(1,), padding=(15,), groups=512, bias=False)
                  )
                  (5): BatchNorm1d(512, eps=1e-05, momentum=0.1, affine=True, track_running_stats=True)
                  (6): Swish()
                  (7): PointwiseConv1d(
                    (conv): Conv1d(512, 512, kernel_size=(1,), stride=(1,))
                  )
                  (8): Dropout(p=0.1, inplace=False)
                )
              )
            )
            (3): ResidualConnectionModule(
              (module): FeedForwardModule(
                (sequential): Sequential(
                  (0): LayerNorm((512,), eps=1e-05, elementwise_affine=True)
                  (1): Linear(
                    (linear): Linear(in_features=512, out_features=2048, bias=True)
                  )
                  (2): Swish()
                  (3): Dropout(p=0.1, inplace=False)
                  (4): Linear(
                    (linear): Linear(in_features=2048, out_features=512, bias=True)
                  )
                  (5): Dropout(p=0.1, inplace=False)
                )
              )
            )
            (4): LayerNorm((512,), eps=1e-05, elementwise_affine=True)
          )
        )
        (1): ConformerBlock(
          (sequential): Sequential(
            (0): ResidualConnectionModule(
              (module): FeedForwardModule(
                (sequential): Sequential(
                  (0): LayerNorm((512,), eps=1e-05, elementwise_affine=True)
                  (1): Linear(
                    (linear): Linear(in_features=512, out_features=2048, bias=True)
                  )
                  (2): Swish()
                  (3): Dropout(p=0.1, inplace=False)
                  (4): Linear(
                    (linear): Linear(in_features=2048, out_features=512, bias=True)
                  )
                  (5): Dropout(p=0.1, inplace=False)
                )
              )
            )
            (1): ResidualConnectionModule(
              (module): MultiHeadedSelfAttentionModule(
                (positional_encoding): PositionalEncoding()
                (layer_norm): LayerNorm((512,), eps=1e-05, elementwise_affine=True)
                (attention): RelativeMultiHeadAttention(
                  (query_proj): Linear(
                    (linear): Linear(in_features=512, out_features=512, bias=True)
                  )
                  (key_proj): Linear(
                    (linear): Linear(in_features=512, out_features=512, bias=True)
                  )
                  (value_proj): Linear(
                    (linear): Linear(in_features=512, out_features=512, bias=True)
                  )
                  (pos_proj): Linear(
                    (linear): Linear(in_features=512, out_features=512, bias=False)
                  )
                  (dropout): Dropout(p=0.1, inplace=False)
                  (out_proj): Linear(
                    (linear): Linear(in_features=512, out_features=512, bias=True)
                  )
                )
                (dropout): Dropout(p=0.1, inplace=False)
              )
            )
            (2): ResidualConnectionModule(
              (module): ConformerConvModule(
                (sequential): Sequential(
                  (0): LayerNorm((512,), eps=1e-05, elementwise_affine=True)
                  (1): Transpose()
                  (2): PointwiseConv1d(
                    (conv): Conv1d(512, 1024, kernel_size=(1,), stride=(1,))
                  )
                  (3): GLU()
                  (4): DepthwiseConv1d(
                    (conv): Conv1d(512, 512, kernel_size=(31,), stride=(1,), padding=(15,), groups=512, bias=False)
                  )
                  (5): BatchNorm1d(512, eps=1e-05, momentum=0.1, affine=True, track_running_stats=True)
                  (6): Swish()
                  (7): PointwiseConv1d(
                    (conv): Conv1d(512, 512, kernel_size=(1,), stride=(1,))
                  )
                  (8): Dropout(p=0.1, inplace=False)
                )
              )
            )
            (3): ResidualConnectionModule(
              (module): FeedForwardModule(
                (sequential): Sequential(
                  (0): LayerNorm((512,), eps=1e-05, elementwise_affine=True)
                  (1): Linear(
                    (linear): Linear(in_features=512, out_features=2048, bias=True)
                  )
                  (2): Swish()
                  (3): Dropout(p=0.1, inplace=False)
                  (4): Linear(
                    (linear): Linear(in_features=2048, out_features=512, bias=True)
                  )
                  (5): Dropout(p=0.1, inplace=False)
                )
              )
            )
            (4): LayerNorm((512,), eps=1e-05, elementwise_affine=True)
          )
        )
        (2): ConformerBlock(
          (sequential): Sequential(
            (0): ResidualConnectionModule(
              (module): FeedForwardModule(
                (sequential): Sequential(
                  (0): LayerNorm((512,), eps=1e-05, elementwise_affine=True)
                  (1): Linear(
                    (linear): Linear(in_features=512, out_features=2048, bias=True)
                  )
                  (2): Swish()
                  (3): Dropout(p=0.1, inplace=False)
                  (4): Linear(
                    (linear): Linear(in_features=2048, out_features=512, bias=True)
                  )
                  (5): Dropout(p=0.1, inplace=False)
                )
              )
            )
            (1): ResidualConnectionModule(
              (module): MultiHeadedSelfAttentionModule(
                (positional_encoding): PositionalEncoding()
                (layer_norm): LayerNorm((512,), eps=1e-05, elementwise_affine=True)
                (attention): RelativeMultiHeadAttention(
                  (query_proj): Linear(
                    (linear): Linear(in_features=512, out_features=512, bias=True)
                  )
                  (key_proj): Linear(
                    (linear): Linear(in_features=512, out_features=512, bias=True)
                  )
                  (value_proj): Linear(
                    (linear): Linear(in_features=512, out_features=512, bias=True)
                  )
                  (pos_proj): Linear(
                    (linear): Linear(in_features=512, out_features=512, bias=False)
                  )
                  (dropout): Dropout(p=0.1, inplace=False)
                  (out_proj): Linear(
                    (linear): Linear(in_features=512, out_features=512, bias=True)
                  )
                )
                (dropout): Dropout(p=0.1, inplace=False)
              )
            )
            (2): ResidualConnectionModule(
              (module): ConformerConvModule(
                (sequential): Sequential(
                  (0): LayerNorm((512,), eps=1e-05, elementwise_affine=True)
                  (1): Transpose()
                  (2): PointwiseConv1d(
                    (conv): Conv1d(512, 1024, kernel_size=(1,), stride=(1,))
                  )
                  (3): GLU()
                  (4): DepthwiseConv1d(
                    (conv): Conv1d(512, 512, kernel_size=(31,), stride=(1,), padding=(15,), groups=512, bias=False)
                  )
                  (5): BatchNorm1d(512, eps=1e-05, momentum=0.1, affine=True, track_running_stats=True)
                  (6): Swish()
                  (7): PointwiseConv1d(
                    (conv): Conv1d(512, 512, kernel_size=(1,), stride=(1,))
                  )
                  (8): Dropout(p=0.1, inplace=False)
                )
              )
            )
            (3): ResidualConnectionModule(
              (module): FeedForwardModule(
                (sequential): Sequential(
                  (0): LayerNorm((512,), eps=1e-05, elementwise_affine=True)
                  (1): Linear(
                    (linear): Linear(in_features=512, out_features=2048, bias=True)
                  )
                  (2): Swish()
                  (3): Dropout(p=0.1, inplace=False)
                  (4): Linear(
                    (linear): Linear(in_features=2048, out_features=512, bias=True)
                  )
                  (5): Dropout(p=0.1, inplace=False)
                )
              )
            )
            (4): LayerNorm((512,), eps=1e-05, elementwise_affine=True)
          )
        )
        (3): ConformerBlock(
          (sequential): Sequential(
            (0): ResidualConnectionModule(
              (module): FeedForwardModule(
                (sequential): Sequential(
                  (0): LayerNorm((512,), eps=1e-05, elementwise_affine=True)
                  (1): Linear(
                    (linear): Linear(in_features=512, out_features=2048, bias=True)
                  )
                  (2): Swish()
                  (3): Dropout(p=0.1, inplace=False)
                  (4): Linear(
                    (linear): Linear(in_features=2048, out_features=512, bias=True)
                  )
                  (5): Dropout(p=0.1, inplace=False)
                )
              )
            )
            (1): ResidualConnectionModule(
              (module): MultiHeadedSelfAttentionModule(
                (positional_encoding): PositionalEncoding()
                (layer_norm): LayerNorm((512,), eps=1e-05, elementwise_affine=True)
                (attention): RelativeMultiHeadAttention(
                  (query_proj): Linear(
                    (linear): Linear(in_features=512, out_features=512, bias=True)
                  )
                  (key_proj): Linear(
                    (linear): Linear(in_features=512, out_features=512, bias=True)
                  )
                  (value_proj): Linear(
                    (linear): Linear(in_features=512, out_features=512, bias=True)
                  )
                  (pos_proj): Linear(
                    (linear): Linear(in_features=512, out_features=512, bias=False)
                  )
                  (dropout): Dropout(p=0.1, inplace=False)
                  (out_proj): Linear(
                    (linear): Linear(in_features=512, out_features=512, bias=True)
                  )
                )
                (dropout): Dropout(p=0.1, inplace=False)
              )
            )
            (2): ResidualConnectionModule(
              (module): ConformerConvModule(
                (sequential): Sequential(
                  (0): LayerNorm((512,), eps=1e-05, elementwise_affine=True)
                  (1): Transpose()
                  (2): PointwiseConv1d(
                    (conv): Conv1d(512, 1024, kernel_size=(1,), stride=(1,))
                  )
                  (3): GLU()
                  (4): DepthwiseConv1d(
                    (conv): Conv1d(512, 512, kernel_size=(31,), stride=(1,), padding=(15,), groups=512, bias=False)
                  )
                  (5): BatchNorm1d(512, eps=1e-05, momentum=0.1, affine=True, track_running_stats=True)
                  (6): Swish()
                  (7): PointwiseConv1d(
                    (conv): Conv1d(512, 512, kernel_size=(1,), stride=(1,))
                  )
                  (8): Dropout(p=0.1, inplace=False)
                )
              )
            )
            (3): ResidualConnectionModule(
              (module): FeedForwardModule(
                (sequential): Sequential(
                  (0): LayerNorm((512,), eps=1e-05, elementwise_affine=True)
                  (1): Linear(
                    (linear): Linear(in_features=512, out_features=2048, bias=True)
                  )
                  (2): Swish()
                  (3): Dropout(p=0.1, inplace=False)
                  (4): Linear(
                    (linear): Linear(in_features=2048, out_features=512, bias=True)
                  )
                  (5): Dropout(p=0.1, inplace=False)
                )
              )
            )
            (4): LayerNorm((512,), eps=1e-05, elementwise_affine=True)
          )
        )
        (4): ConformerBlock(
          (sequential): Sequential(
            (0): ResidualConnectionModule(
              (module): FeedForwardModule(
                (sequential): Sequential(
                  (0): LayerNorm((512,), eps=1e-05, elementwise_affine=True)
                  (1): Linear(
                    (linear): Linear(in_features=512, out_features=2048, bias=True)
                  )
                  (2): Swish()
                  (3): Dropout(p=0.1, inplace=False)
                  (4): Linear(
                    (linear): Linear(in_features=2048, out_features=512, bias=True)
                  )
                  (5): Dropout(p=0.1, inplace=False)
                )
              )
            )
            (1): ResidualConnectionModule(
              (module): MultiHeadedSelfAttentionModule(
                (positional_encoding): PositionalEncoding()
                (layer_norm): LayerNorm((512,), eps=1e-05, elementwise_affine=True)
                (attention): RelativeMultiHeadAttention(
                  (query_proj): Linear(
                    (linear): Linear(in_features=512, out_features=512, bias=True)
                  )
                  (key_proj): Linear(
                    (linear): Linear(in_features=512, out_features=512, bias=True)
                  )
                  (value_proj): Linear(
                    (linear): Linear(in_features=512, out_features=512, bias=True)
                  )
                  (pos_proj): Linear(
                    (linear): Linear(in_features=512, out_features=512, bias=False)
                  )
                  (dropout): Dropout(p=0.1, inplace=False)
                  (out_proj): Linear(
                    (linear): Linear(in_features=512, out_features=512, bias=True)
                  )
                )
                (dropout): Dropout(p=0.1, inplace=False)
              )
            )
            (2): ResidualConnectionModule(
              (module): ConformerConvModule(
                (sequential): Sequential(
                  (0): LayerNorm((512,), eps=1e-05, elementwise_affine=True)
                  (1): Transpose()
                  (2): PointwiseConv1d(
                    (conv): Conv1d(512, 1024, kernel_size=(1,), stride=(1,))
                  )
                  (3): GLU()
                  (4): DepthwiseConv1d(
                    (conv): Conv1d(512, 512, kernel_size=(31,), stride=(1,), padding=(15,), groups=512, bias=False)
                  )
                  (5): BatchNorm1d(512, eps=1e-05, momentum=0.1, affine=True, track_running_stats=True)
                  (6): Swish()
                  (7): PointwiseConv1d(
                    (conv): Conv1d(512, 512, kernel_size=(1,), stride=(1,))
                  )
                  (8): Dropout(p=0.1, inplace=False)
                )
              )
            )
            (3): ResidualConnectionModule(
              (module): FeedForwardModule(
                (sequential): Sequential(
                  (0): LayerNorm((512,), eps=1e-05, elementwise_affine=True)
                  (1): Linear(
                    (linear): Linear(in_features=512, out_features=2048, bias=True)
                  )
                  (2): Swish()
                  (3): Dropout(p=0.1, inplace=False)
                  (4): Linear(
                    (linear): Linear(in_features=2048, out_features=512, bias=True)
                  )
                  (5): Dropout(p=0.1, inplace=False)
                )
              )
            )
            (4): LayerNorm((512,), eps=1e-05, elementwise_affine=True)
          )
        )
        (5): ConformerBlock(
          (sequential): Sequential(
            (0): ResidualConnectionModule(
              (module): FeedForwardModule(
                (sequential): Sequential(
                  (0): LayerNorm((512,), eps=1e-05, elementwise_affine=True)
                  (1): Linear(
                    (linear): Linear(in_features=512, out_features=2048, bias=True)
                  )
                  (2): Swish()
                  (3): Dropout(p=0.1, inplace=False)
                  (4): Linear(
                    (linear): Linear(in_features=2048, out_features=512, bias=True)
                  )
                  (5): Dropout(p=0.1, inplace=False)
                )
              )
            )
            (1): ResidualConnectionModule(
              (module): MultiHeadedSelfAttentionModule(
                (positional_encoding): PositionalEncoding()
                (layer_norm): LayerNorm((512,), eps=1e-05, elementwise_affine=True)
                (attention): RelativeMultiHeadAttention(
                  (query_proj): Linear(
                    (linear): Linear(in_features=512, out_features=512, bias=True)
                  )
                  (key_proj): Linear(
                    (linear): Linear(in_features=512, out_features=512, bias=True)
                  )
                  (value_proj): Linear(
                    (linear): Linear(in_features=512, out_features=512, bias=True)
                  )
                  (pos_proj): Linear(
                    (linear): Linear(in_features=512, out_features=512, bias=False)
                  )
                  (dropout): Dropout(p=0.1, inplace=False)
                  (out_proj): Linear(
                    (linear): Linear(in_features=512, out_features=512, bias=True)
                  )
                )
                (dropout): Dropout(p=0.1, inplace=False)
              )
            )
            (2): ResidualConnectionModule(
              (module): ConformerConvModule(
                (sequential): Sequential(
                  (0): LayerNorm((512,), eps=1e-05, elementwise_affine=True)
                  (1): Transpose()
                  (2): PointwiseConv1d(
                    (conv): Conv1d(512, 1024, kernel_size=(1,), stride=(1,))
                  )
                  (3): GLU()
                  (4): DepthwiseConv1d(
                    (conv): Conv1d(512, 512, kernel_size=(31,), stride=(1,), padding=(15,), groups=512, bias=False)
                  )
                  (5): BatchNorm1d(512, eps=1e-05, momentum=0.1, affine=True, track_running_stats=True)
                  (6): Swish()
                  (7): PointwiseConv1d(
                    (conv): Conv1d(512, 512, kernel_size=(1,), stride=(1,))
                  )
                  (8): Dropout(p=0.1, inplace=False)
                )
              )
            )
            (3): ResidualConnectionModule(
              (module): FeedForwardModule(
                (sequential): Sequential(
                  (0): LayerNorm((512,), eps=1e-05, elementwise_affine=True)
                  (1): Linear(
                    (linear): Linear(in_features=512, out_features=2048, bias=True)
                  )
                  (2): Swish()
                  (3): Dropout(p=0.1, inplace=False)
                  (4): Linear(
                    (linear): Linear(in_features=2048, out_features=512, bias=True)
                  )
                  (5): Dropout(p=0.1, inplace=False)
                )
              )
            )
            (4): LayerNorm((512,), eps=1e-05, elementwise_affine=True)
          )
        )
        (6): ConformerBlock(
          (sequential): Sequential(
            (0): ResidualConnectionModule(
              (module): FeedForwardModule(
                (sequential): Sequential(
                  (0): LayerNorm((512,), eps=1e-05, elementwise_affine=True)
                  (1): Linear(
                    (linear): Linear(in_features=512, out_features=2048, bias=True)
                  )
                  (2): Swish()
                  (3): Dropout(p=0.1, inplace=False)
                  (4): Linear(
                    (linear): Linear(in_features=2048, out_features=512, bias=True)
                  )
                  (5): Dropout(p=0.1, inplace=False)
                )
              )
            )
            (1): ResidualConnectionModule(
              (module): MultiHeadedSelfAttentionModule(
                (positional_encoding): PositionalEncoding()
                (layer_norm): LayerNorm((512,), eps=1e-05, elementwise_affine=True)
                (attention): RelativeMultiHeadAttention(
                  (query_proj): Linear(
                    (linear): Linear(in_features=512, out_features=512, bias=True)
                  )
                  (key_proj): Linear(
                    (linear): Linear(in_features=512, out_features=512, bias=True)
                  )
                  (value_proj): Linear(
                    (linear): Linear(in_features=512, out_features=512, bias=True)
                  )
                  (pos_proj): Linear(
                    (linear): Linear(in_features=512, out_features=512, bias=False)
                  )
                  (dropout): Dropout(p=0.1, inplace=False)
                  (out_proj): Linear(
                    (linear): Linear(in_features=512, out_features=512, bias=True)
                  )
                )
                (dropout): Dropout(p=0.1, inplace=False)
              )
            )
            (2): ResidualConnectionModule(
              (module): ConformerConvModule(
                (sequential): Sequential(
                  (0): LayerNorm((512,), eps=1e-05, elementwise_affine=True)
                  (1): Transpose()
                  (2): PointwiseConv1d(
                    (conv): Conv1d(512, 1024, kernel_size=(1,), stride=(1,))
                  )
                  (3): GLU()
                  (4): DepthwiseConv1d(
                    (conv): Conv1d(512, 512, kernel_size=(31,), stride=(1,), padding=(15,), groups=512, bias=False)
                  )
                  (5): BatchNorm1d(512, eps=1e-05, momentum=0.1, affine=True, track_running_stats=True)
                  (6): Swish()
                  (7): PointwiseConv1d(
                    (conv): Conv1d(512, 512, kernel_size=(1,), stride=(1,))
                  )
                  (8): Dropout(p=0.1, inplace=False)
                )
              )
            )
            (3): ResidualConnectionModule(
              (module): FeedForwardModule(
                (sequential): Sequential(
                  (0): LayerNorm((512,), eps=1e-05, elementwise_affine=True)
                  (1): Linear(
                    (linear): Linear(in_features=512, out_features=2048, bias=True)
                  )
                  (2): Swish()
                  (3): Dropout(p=0.1, inplace=False)
                  (4): Linear(
                    (linear): Linear(in_features=2048, out_features=512, bias=True)
                  )
                  (5): Dropout(p=0.1, inplace=False)
                )
              )
            )
            (4): LayerNorm((512,), eps=1e-05, elementwise_affine=True)
          )
        )
        (7): ConformerBlock(
          (sequential): Sequential(
            (0): ResidualConnectionModule(
              (module): FeedForwardModule(
                (sequential): Sequential(
                  (0): LayerNorm((512,), eps=1e-05, elementwise_affine=True)
                  (1): Linear(
                    (linear): Linear(in_features=512, out_features=2048, bias=True)
                  )
                  (2): Swish()
                  (3): Dropout(p=0.1, inplace=False)
                  (4): Linear(
                    (linear): Linear(in_features=2048, out_features=512, bias=True)
                  )
                  (5): Dropout(p=0.1, inplace=False)
                )
              )
            )
            (1): ResidualConnectionModule(
              (module): MultiHeadedSelfAttentionModule(
                (positional_encoding): PositionalEncoding()
                (layer_norm): LayerNorm((512,), eps=1e-05, elementwise_affine=True)
                (attention): RelativeMultiHeadAttention(
                  (query_proj): Linear(
                    (linear): Linear(in_features=512, out_features=512, bias=True)
                  )
                  (key_proj): Linear(
                    (linear): Linear(in_features=512, out_features=512, bias=True)
                  )
                  (value_proj): Linear(
                    (linear): Linear(in_features=512, out_features=512, bias=True)
                  )
                  (pos_proj): Linear(
                    (linear): Linear(in_features=512, out_features=512, bias=False)
                  )
                  (dropout): Dropout(p=0.1, inplace=False)
                  (out_proj): Linear(
                    (linear): Linear(in_features=512, out_features=512, bias=True)
                  )
                )
                (dropout): Dropout(p=0.1, inplace=False)
              )
            )
            (2): ResidualConnectionModule(
              (module): ConformerConvModule(
                (sequential): Sequential(
                  (0): LayerNorm((512,), eps=1e-05, elementwise_affine=True)
                  (1): Transpose()
                  (2): PointwiseConv1d(
                    (conv): Conv1d(512, 1024, kernel_size=(1,), stride=(1,))
                  )
                  (3): GLU()
                  (4): DepthwiseConv1d(
                    (conv): Conv1d(512, 512, kernel_size=(31,), stride=(1,), padding=(15,), groups=512, bias=False)
                  )
                  (5): BatchNorm1d(512, eps=1e-05, momentum=0.1, affine=True, track_running_stats=True)
                  (6): Swish()
                  (7): PointwiseConv1d(
                    (conv): Conv1d(512, 512, kernel_size=(1,), stride=(1,))
                  )
                  (8): Dropout(p=0.1, inplace=False)
                )
              )
            )
            (3): ResidualConnectionModule(
              (module): FeedForwardModule(
                (sequential): Sequential(
                  (0): LayerNorm((512,), eps=1e-05, elementwise_affine=True)
                  (1): Linear(
                    (linear): Linear(in_features=512, out_features=2048, bias=True)
                  )
                  (2): Swish()
                  (3): Dropout(p=0.1, inplace=False)
                  (4): Linear(
                    (linear): Linear(in_features=2048, out_features=512, bias=True)
                  )
                  (5): Dropout(p=0.1, inplace=False)
                )
              )
            )
            (4): LayerNorm((512,), eps=1e-05, elementwise_affine=True)
          )
        )
        (8): ConformerBlock(
          (sequential): Sequential(
            (0): ResidualConnectionModule(
              (module): FeedForwardModule(
                (sequential): Sequential(
                  (0): LayerNorm((512,), eps=1e-05, elementwise_affine=True)
                  (1): Linear(
                    (linear): Linear(in_features=512, out_features=2048, bias=True)
                  )
                  (2): Swish()
                  (3): Dropout(p=0.1, inplace=False)
                  (4): Linear(
                    (linear): Linear(in_features=2048, out_features=512, bias=True)
                  )
                  (5): Dropout(p=0.1, inplace=False)
                )
              )
            )
            (1): ResidualConnectionModule(
              (module): MultiHeadedSelfAttentionModule(
                (positional_encoding): PositionalEncoding()
                (layer_norm): LayerNorm((512,), eps=1e-05, elementwise_affine=True)
                (attention): RelativeMultiHeadAttention(
                  (query_proj): Linear(
                    (linear): Linear(in_features=512, out_features=512, bias=True)
                  )
                  (key_proj): Linear(
                    (linear): Linear(in_features=512, out_features=512, bias=True)
                  )
                  (value_proj): Linear(
                    (linear): Linear(in_features=512, out_features=512, bias=True)
                  )
                  (pos_proj): Linear(
                    (linear): Linear(in_features=512, out_features=512, bias=False)
                  )
                  (dropout): Dropout(p=0.1, inplace=False)
                  (out_proj): Linear(
                    (linear): Linear(in_features=512, out_features=512, bias=True)
                  )
                )
                (dropout): Dropout(p=0.1, inplace=False)
              )
            )
            (2): ResidualConnectionModule(
              (module): ConformerConvModule(
                (sequential): Sequential(
                  (0): LayerNorm((512,), eps=1e-05, elementwise_affine=True)
                  (1): Transpose()
                  (2): PointwiseConv1d(
                    (conv): Conv1d(512, 1024, kernel_size=(1,), stride=(1,))
                  )
                  (3): GLU()
                  (4): DepthwiseConv1d(
                    (conv): Conv1d(512, 512, kernel_size=(31,), stride=(1,), padding=(15,), groups=512, bias=False)
                  )
                  (5): BatchNorm1d(512, eps=1e-05, momentum=0.1, affine=True, track_running_stats=True)
                  (6): Swish()
                  (7): PointwiseConv1d(
                    (conv): Conv1d(512, 512, kernel_size=(1,), stride=(1,))
                  )
                  (8): Dropout(p=0.1, inplace=False)
                )
              )
            )
            (3): ResidualConnectionModule(
              (module): FeedForwardModule(
                (sequential): Sequential(
                  (0): LayerNorm((512,), eps=1e-05, elementwise_affine=True)
                  (1): Linear(
                    (linear): Linear(in_features=512, out_features=2048, bias=True)
                  )
                  (2): Swish()
                  (3): Dropout(p=0.1, inplace=False)
                  (4): Linear(
                    (linear): Linear(in_features=2048, out_features=512, bias=True)
                  )
                  (5): Dropout(p=0.1, inplace=False)
                )
              )
            )
            (4): LayerNorm((512,), eps=1e-05, elementwise_affine=True)
          )
        )
        (9): ConformerBlock(
          (sequential): Sequential(
            (0): ResidualConnectionModule(
              (module): FeedForwardModule(
                (sequential): Sequential(
                  (0): LayerNorm((512,), eps=1e-05, elementwise_affine=True)
                  (1): Linear(
                    (linear): Linear(in_features=512, out_features=2048, bias=True)
                  )
                  (2): Swish()
                  (3): Dropout(p=0.1, inplace=False)
                  (4): Linear(
                    (linear): Linear(in_features=2048, out_features=512, bias=True)
                  )
                  (5): Dropout(p=0.1, inplace=False)
                )
              )
            )
            (1): ResidualConnectionModule(
              (module): MultiHeadedSelfAttentionModule(
                (positional_encoding): PositionalEncoding()
                (layer_norm): LayerNorm((512,), eps=1e-05, elementwise_affine=True)
                (attention): RelativeMultiHeadAttention(
                  (query_proj): Linear(
                    (linear): Linear(in_features=512, out_features=512, bias=True)
                  )
                  (key_proj): Linear(
                    (linear): Linear(in_features=512, out_features=512, bias=True)
                  )
                  (value_proj): Linear(
                    (linear): Linear(in_features=512, out_features=512, bias=True)
                  )
                  (pos_proj): Linear(
                    (linear): Linear(in_features=512, out_features=512, bias=False)
                  )
                  (dropout): Dropout(p=0.1, inplace=False)
                  (out_proj): Linear(
                    (linear): Linear(in_features=512, out_features=512, bias=True)
                  )
                )
                (dropout): Dropout(p=0.1, inplace=False)
              )
            )
            (2): ResidualConnectionModule(
              (module): ConformerConvModule(
                (sequential): Sequential(
                  (0): LayerNorm((512,), eps=1e-05, elementwise_affine=True)
                  (1): Transpose()
                  (2): PointwiseConv1d(
                    (conv): Conv1d(512, 1024, kernel_size=(1,), stride=(1,))
                  )
                  (3): GLU()
                  (4): DepthwiseConv1d(
                    (conv): Conv1d(512, 512, kernel_size=(31,), stride=(1,), padding=(15,), groups=512, bias=False)
                  )
                  (5): BatchNorm1d(512, eps=1e-05, momentum=0.1, affine=True, track_running_stats=True)
                  (6): Swish()
                  (7): PointwiseConv1d(
                    (conv): Conv1d(512, 512, kernel_size=(1,), stride=(1,))
                  )
                  (8): Dropout(p=0.1, inplace=False)
                )
              )
            )
            (3): ResidualConnectionModule(
              (module): FeedForwardModule(
                (sequential): Sequential(
                  (0): LayerNorm((512,), eps=1e-05, elementwise_affine=True)
                  (1): Linear(
                    (linear): Linear(in_features=512, out_features=2048, bias=True)
                  )
                  (2): Swish()
                  (3): Dropout(p=0.1, inplace=False)
                  (4): Linear(
                    (linear): Linear(in_features=2048, out_features=512, bias=True)
                  )
                  (5): Dropout(p=0.1, inplace=False)
                )
              )
            )
            (4): LayerNorm((512,), eps=1e-05, elementwise_affine=True)
          )
        )
        (10): ConformerBlock(
          (sequential): Sequential(
            (0): ResidualConnectionModule(
              (module): FeedForwardModule(
                (sequential): Sequential(
                  (0): LayerNorm((512,), eps=1e-05, elementwise_affine=True)
                  (1): Linear(
                    (linear): Linear(in_features=512, out_features=2048, bias=True)
                  )
                  (2): Swish()
                  (3): Dropout(p=0.1, inplace=False)
                  (4): Linear(
                    (linear): Linear(in_features=2048, out_features=512, bias=True)
                  )
                  (5): Dropout(p=0.1, inplace=False)
                )
              )
            )
            (1): ResidualConnectionModule(
              (module): MultiHeadedSelfAttentionModule(
                (positional_encoding): PositionalEncoding()
                (layer_norm): LayerNorm((512,), eps=1e-05, elementwise_affine=True)
                (attention): RelativeMultiHeadAttention(
                  (query_proj): Linear(
                    (linear): Linear(in_features=512, out_features=512, bias=True)
                  )
                  (key_proj): Linear(
                    (linear): Linear(in_features=512, out_features=512, bias=True)
                  )
                  (value_proj): Linear(
                    (linear): Linear(in_features=512, out_features=512, bias=True)
                  )
                  (pos_proj): Linear(
                    (linear): Linear(in_features=512, out_features=512, bias=False)
                  )
                  (dropout): Dropout(p=0.1, inplace=False)
                  (out_proj): Linear(
                    (linear): Linear(in_features=512, out_features=512, bias=True)
                  )
                )
                (dropout): Dropout(p=0.1, inplace=False)
              )
            )
            (2): ResidualConnectionModule(
              (module): ConformerConvModule(
                (sequential): Sequential(
                  (0): LayerNorm((512,), eps=1e-05, elementwise_affine=True)
                  (1): Transpose()
                  (2): PointwiseConv1d(
                    (conv): Conv1d(512, 1024, kernel_size=(1,), stride=(1,))
                  )
                  (3): GLU()
                  (4): DepthwiseConv1d(
                    (conv): Conv1d(512, 512, kernel_size=(31,), stride=(1,), padding=(15,), groups=512, bias=False)
                  )
                  (5): BatchNorm1d(512, eps=1e-05, momentum=0.1, affine=True, track_running_stats=True)
                  (6): Swish()
                  (7): PointwiseConv1d(
                    (conv): Conv1d(512, 512, kernel_size=(1,), stride=(1,))
                  )
                  (8): Dropout(p=0.1, inplace=False)
                )
              )
            )
            (3): ResidualConnectionModule(
              (module): FeedForwardModule(
                (sequential): Sequential(
                  (0): LayerNorm((512,), eps=1e-05, elementwise_affine=True)
                  (1): Linear(
                    (linear): Linear(in_features=512, out_features=2048, bias=True)
                  )
                  (2): Swish()
                  (3): Dropout(p=0.1, inplace=False)
                  (4): Linear(
                    (linear): Linear(in_features=2048, out_features=512, bias=True)
                  )
                  (5): Dropout(p=0.1, inplace=False)
                )
              )
            )
            (4): LayerNorm((512,), eps=1e-05, elementwise_affine=True)
          )
        )
        (11): ConformerBlock(
          (sequential): Sequential(
            (0): ResidualConnectionModule(
              (module): FeedForwardModule(
                (sequential): Sequential(
                  (0): LayerNorm((512,), eps=1e-05, elementwise_affine=True)
                  (1): Linear(
                    (linear): Linear(in_features=512, out_features=2048, bias=True)
                  )
                  (2): Swish()
                  (3): Dropout(p=0.1, inplace=False)
                  (4): Linear(
                    (linear): Linear(in_features=2048, out_features=512, bias=True)
                  )
                  (5): Dropout(p=0.1, inplace=False)
                )
              )
            )
            (1): ResidualConnectionModule(
              (module): MultiHeadedSelfAttentionModule(
                (positional_encoding): PositionalEncoding()
                (layer_norm): LayerNorm((512,), eps=1e-05, elementwise_affine=True)
                (attention): RelativeMultiHeadAttention(
                  (query_proj): Linear(
                    (linear): Linear(in_features=512, out_features=512, bias=True)
                  )
                  (key_proj): Linear(
                    (linear): Linear(in_features=512, out_features=512, bias=True)
                  )
                  (value_proj): Linear(
                    (linear): Linear(in_features=512, out_features=512, bias=True)
                  )
                  (pos_proj): Linear(
                    (linear): Linear(in_features=512, out_features=512, bias=False)
                  )
                  (dropout): Dropout(p=0.1, inplace=False)
                  (out_proj): Linear(
                    (linear): Linear(in_features=512, out_features=512, bias=True)
                  )
                )
                (dropout): Dropout(p=0.1, inplace=False)
              )
            )
            (2): ResidualConnectionModule(
              (module): ConformerConvModule(
                (sequential): Sequential(
                  (0): LayerNorm((512,), eps=1e-05, elementwise_affine=True)
                  (1): Transpose()
                  (2): PointwiseConv1d(
                    (conv): Conv1d(512, 1024, kernel_size=(1,), stride=(1,))
                  )
                  (3): GLU()
                  (4): DepthwiseConv1d(
                    (conv): Conv1d(512, 512, kernel_size=(31,), stride=(1,), padding=(15,), groups=512, bias=False)
                  )
                  (5): BatchNorm1d(512, eps=1e-05, momentum=0.1, affine=True, track_running_stats=True)
                  (6): Swish()
                  (7): PointwiseConv1d(
                    (conv): Conv1d(512, 512, kernel_size=(1,), stride=(1,))
                  )
                  (8): Dropout(p=0.1, inplace=False)
                )
              )
            )
            (3): ResidualConnectionModule(
              (module): FeedForwardModule(
                (sequential): Sequential(
                  (0): LayerNorm((512,), eps=1e-05, elementwise_affine=True)
                  (1): Linear(
                    (linear): Linear(in_features=512, out_features=2048, bias=True)
                  )
                  (2): Swish()
                  (3): Dropout(p=0.1, inplace=False)
                  (4): Linear(
                    (linear): Linear(in_features=2048, out_features=512, bias=True)
                  )
                  (5): Dropout(p=0.1, inplace=False)
                )
              )
            )
            (4): LayerNorm((512,), eps=1e-05, elementwise_affine=True)
          )
        )
        (12): ConformerBlock(
          (sequential): Sequential(
            (0): ResidualConnectionModule(
              (module): FeedForwardModule(
                (sequential): Sequential(
                  (0): LayerNorm((512,), eps=1e-05, elementwise_affine=True)
                  (1): Linear(
                    (linear): Linear(in_features=512, out_features=2048, bias=True)
                  )
                  (2): Swish()
                  (3): Dropout(p=0.1, inplace=False)
                  (4): Linear(
                    (linear): Linear(in_features=2048, out_features=512, bias=True)
                  )
                  (5): Dropout(p=0.1, inplace=False)
                )
              )
            )
            (1): ResidualConnectionModule(
              (module): MultiHeadedSelfAttentionModule(
                (positional_encoding): PositionalEncoding()
                (layer_norm): LayerNorm((512,), eps=1e-05, elementwise_affine=True)
                (attention): RelativeMultiHeadAttention(
                  (query_proj): Linear(
                    (linear): Linear(in_features=512, out_features=512, bias=True)
                  )
                  (key_proj): Linear(
                    (linear): Linear(in_features=512, out_features=512, bias=True)
                  )
                  (value_proj): Linear(
                    (linear): Linear(in_features=512, out_features=512, bias=True)
                  )
                  (pos_proj): Linear(
                    (linear): Linear(in_features=512, out_features=512, bias=False)
                  )
                  (dropout): Dropout(p=0.1, inplace=False)
                  (out_proj): Linear(
                    (linear): Linear(in_features=512, out_features=512, bias=True)
                  )
                )
                (dropout): Dropout(p=0.1, inplace=False)
              )
            )
            (2): ResidualConnectionModule(
              (module): ConformerConvModule(
                (sequential): Sequential(
                  (0): LayerNorm((512,), eps=1e-05, elementwise_affine=True)
                  (1): Transpose()
                  (2): PointwiseConv1d(
                    (conv): Conv1d(512, 1024, kernel_size=(1,), stride=(1,))
                  )
                  (3): GLU()
                  (4): DepthwiseConv1d(
                    (conv): Conv1d(512, 512, kernel_size=(31,), stride=(1,), padding=(15,), groups=512, bias=False)
                  )
                  (5): BatchNorm1d(512, eps=1e-05, momentum=0.1, affine=True, track_running_stats=True)
                  (6): Swish()
                  (7): PointwiseConv1d(
                    (conv): Conv1d(512, 512, kernel_size=(1,), stride=(1,))
                  )
                  (8): Dropout(p=0.1, inplace=False)
                )
              )
            )
            (3): ResidualConnectionModule(
              (module): FeedForwardModule(
                (sequential): Sequential(
                  (0): LayerNorm((512,), eps=1e-05, elementwise_affine=True)
                  (1): Linear(
                    (linear): Linear(in_features=512, out_features=2048, bias=True)
                  )
                  (2): Swish()
                  (3): Dropout(p=0.1, inplace=False)
                  (4): Linear(
                    (linear): Linear(in_features=2048, out_features=512, bias=True)
                  )
                  (5): Dropout(p=0.1, inplace=False)
                )
              )
            )
            (4): LayerNorm((512,), eps=1e-05, elementwise_affine=True)
          )
        )
        (13): ConformerBlock(
          (sequential): Sequential(
            (0): ResidualConnectionModule(
              (module): FeedForwardModule(
                (sequential): Sequential(
                  (0): LayerNorm((512,), eps=1e-05, elementwise_affine=True)
                  (1): Linear(
                    (linear): Linear(in_features=512, out_features=2048, bias=True)
                  )
                  (2): Swish()
                  (3): Dropout(p=0.1, inplace=False)
                  (4): Linear(
                    (linear): Linear(in_features=2048, out_features=512, bias=True)
                  )
                  (5): Dropout(p=0.1, inplace=False)
                )
              )
            )
            (1): ResidualConnectionModule(
              (module): MultiHeadedSelfAttentionModule(
                (positional_encoding): PositionalEncoding()
                (layer_norm): LayerNorm((512,), eps=1e-05, elementwise_affine=True)
                (attention): RelativeMultiHeadAttention(
                  (query_proj): Linear(
                    (linear): Linear(in_features=512, out_features=512, bias=True)
                  )
                  (key_proj): Linear(
                    (linear): Linear(in_features=512, out_features=512, bias=True)
                  )
                  (value_proj): Linear(
                    (linear): Linear(in_features=512, out_features=512, bias=True)
                  )
                  (pos_proj): Linear(
                    (linear): Linear(in_features=512, out_features=512, bias=False)
                  )
                  (dropout): Dropout(p=0.1, inplace=False)
                  (out_proj): Linear(
                    (linear): Linear(in_features=512, out_features=512, bias=True)
                  )
                )
                (dropout): Dropout(p=0.1, inplace=False)
              )
            )
            (2): ResidualConnectionModule(
              (module): ConformerConvModule(
                (sequential): Sequential(
                  (0): LayerNorm((512,), eps=1e-05, elementwise_affine=True)
                  (1): Transpose()
                  (2): PointwiseConv1d(
                    (conv): Conv1d(512, 1024, kernel_size=(1,), stride=(1,))
                  )
                  (3): GLU()
                  (4): DepthwiseConv1d(
                    (conv): Conv1d(512, 512, kernel_size=(31,), stride=(1,), padding=(15,), groups=512, bias=False)
                  )
                  (5): BatchNorm1d(512, eps=1e-05, momentum=0.1, affine=True, track_running_stats=True)
                  (6): Swish()
                  (7): PointwiseConv1d(
                    (conv): Conv1d(512, 512, kernel_size=(1,), stride=(1,))
                  )
                  (8): Dropout(p=0.1, inplace=False)
                )
              )
            )
            (3): ResidualConnectionModule(
              (module): FeedForwardModule(
                (sequential): Sequential(
                  (0): LayerNorm((512,), eps=1e-05, elementwise_affine=True)
                  (1): Linear(
                    (linear): Linear(in_features=512, out_features=2048, bias=True)
                  )
                  (2): Swish()
                  (3): Dropout(p=0.1, inplace=False)
                  (4): Linear(
                    (linear): Linear(in_features=2048, out_features=512, bias=True)
                  )
                  (5): Dropout(p=0.1, inplace=False)
                )
              )
            )
            (4): LayerNorm((512,), eps=1e-05, elementwise_affine=True)
          )
        )
        (14): ConformerBlock(
          (sequential): Sequential(
            (0): ResidualConnectionModule(
              (module): FeedForwardModule(
                (sequential): Sequential(
                  (0): LayerNorm((512,), eps=1e-05, elementwise_affine=True)
                  (1): Linear(
                    (linear): Linear(in_features=512, out_features=2048, bias=True)
                  )
                  (2): Swish()
                  (3): Dropout(p=0.1, inplace=False)
                  (4): Linear(
                    (linear): Linear(in_features=2048, out_features=512, bias=True)
                  )
                  (5): Dropout(p=0.1, inplace=False)
                )
              )
            )
            (1): ResidualConnectionModule(
              (module): MultiHeadedSelfAttentionModule(
                (positional_encoding): PositionalEncoding()
                (layer_norm): LayerNorm((512,), eps=1e-05, elementwise_affine=True)
                (attention): RelativeMultiHeadAttention(
                  (query_proj): Linear(
                    (linear): Linear(in_features=512, out_features=512, bias=True)
                  )
                  (key_proj): Linear(
                    (linear): Linear(in_features=512, out_features=512, bias=True)
                  )
                  (value_proj): Linear(
                    (linear): Linear(in_features=512, out_features=512, bias=True)
                  )
                  (pos_proj): Linear(
                    (linear): Linear(in_features=512, out_features=512, bias=False)
                  )
                  (dropout): Dropout(p=0.1, inplace=False)
                  (out_proj): Linear(
                    (linear): Linear(in_features=512, out_features=512, bias=True)
                  )
                )
                (dropout): Dropout(p=0.1, inplace=False)
              )
            )
            (2): ResidualConnectionModule(
              (module): ConformerConvModule(
                (sequential): Sequential(
                  (0): LayerNorm((512,), eps=1e-05, elementwise_affine=True)
                  (1): Transpose()
                  (2): PointwiseConv1d(
                    (conv): Conv1d(512, 1024, kernel_size=(1,), stride=(1,))
                  )
                  (3): GLU()
                  (4): DepthwiseConv1d(
                    (conv): Conv1d(512, 512, kernel_size=(31,), stride=(1,), padding=(15,), groups=512, bias=False)
                  )
                  (5): BatchNorm1d(512, eps=1e-05, momentum=0.1, affine=True, track_running_stats=True)
                  (6): Swish()
                  (7): PointwiseConv1d(
                    (conv): Conv1d(512, 512, kernel_size=(1,), stride=(1,))
                  )
                  (8): Dropout(p=0.1, inplace=False)
                )
              )
            )
            (3): ResidualConnectionModule(
              (module): FeedForwardModule(
                (sequential): Sequential(
                  (0): LayerNorm((512,), eps=1e-05, elementwise_affine=True)
                  (1): Linear(
                    (linear): Linear(in_features=512, out_features=2048, bias=True)
                  )
                  (2): Swish()
                  (3): Dropout(p=0.1, inplace=False)
                  (4): Linear(
                    (linear): Linear(in_features=2048, out_features=512, bias=True)
                  )
                  (5): Dropout(p=0.1, inplace=False)
                )
              )
            )
            (4): LayerNorm((512,), eps=1e-05, elementwise_affine=True)
          )
        )
        (15): ConformerBlock(
          (sequential): Sequential(
            (0): ResidualConnectionModule(
              (module): FeedForwardModule(
                (sequential): Sequential(
                  (0): LayerNorm((512,), eps=1e-05, elementwise_affine=True)
                  (1): Linear(
                    (linear): Linear(in_features=512, out_features=2048, bias=True)
                  )
                  (2): Swish()
                  (3): Dropout(p=0.1, inplace=False)
                  (4): Linear(
                    (linear): Linear(in_features=2048, out_features=512, bias=True)
                  )
                  (5): Dropout(p=0.1, inplace=False)
                )
              )
            )
            (1): ResidualConnectionModule(
              (module): MultiHeadedSelfAttentionModule(
                (positional_encoding): PositionalEncoding()
                (layer_norm): LayerNorm((512,), eps=1e-05, elementwise_affine=True)
                (attention): RelativeMultiHeadAttention(
                  (query_proj): Linear(
                    (linear): Linear(in_features=512, out_features=512, bias=True)
                  )
                  (key_proj): Linear(
                    (linear): Linear(in_features=512, out_features=512, bias=True)
                  )
                  (value_proj): Linear(
                    (linear): Linear(in_features=512, out_features=512, bias=True)
                  )
                  (pos_proj): Linear(
                    (linear): Linear(in_features=512, out_features=512, bias=False)
                  )
                  (dropout): Dropout(p=0.1, inplace=False)
                  (out_proj): Linear(
                    (linear): Linear(in_features=512, out_features=512, bias=True)
                  )
                )
                (dropout): Dropout(p=0.1, inplace=False)
              )
            )
            (2): ResidualConnectionModule(
              (module): ConformerConvModule(
                (sequential): Sequential(
                  (0): LayerNorm((512,), eps=1e-05, elementwise_affine=True)
                  (1): Transpose()
                  (2): PointwiseConv1d(
                    (conv): Conv1d(512, 1024, kernel_size=(1,), stride=(1,))
                  )
                  (3): GLU()
                  (4): DepthwiseConv1d(
                    (conv): Conv1d(512, 512, kernel_size=(31,), stride=(1,), padding=(15,), groups=512, bias=False)
                  )
                  (5): BatchNorm1d(512, eps=1e-05, momentum=0.1, affine=True, track_running_stats=True)
                  (6): Swish()
                  (7): PointwiseConv1d(
                    (conv): Conv1d(512, 512, kernel_size=(1,), stride=(1,))
                  )
                  (8): Dropout(p=0.1, inplace=False)
                )
              )
            )
            (3): ResidualConnectionModule(
              (module): FeedForwardModule(
                (sequential): Sequential(
                  (0): LayerNorm((512,), eps=1e-05, elementwise_affine=True)
                  (1): Linear(
                    (linear): Linear(in_features=512, out_features=2048, bias=True)
                  )
                  (2): Swish()
                  (3): Dropout(p=0.1, inplace=False)
                  (4): Linear(
                    (linear): Linear(in_features=2048, out_features=512, bias=True)
                  )
                  (5): Dropout(p=0.1, inplace=False)
                )
              )
            )
            (4): LayerNorm((512,), eps=1e-05, elementwise_affine=True)
          )
        )
        (16): ConformerBlock(
          (sequential): Sequential(
            (0): ResidualConnectionModule(
              (module): FeedForwardModule(
                (sequential): Sequential(
                  (0): LayerNorm((512,), eps=1e-05, elementwise_affine=True)
                  (1): Linear(
                    (linear): Linear(in_features=512, out_features=2048, bias=True)
                  )
                  (2): Swish()
                  (3): Dropout(p=0.1, inplace=False)
                  (4): Linear(
                    (linear): Linear(in_features=2048, out_features=512, bias=True)
                  )
                  (5): Dropout(p=0.1, inplace=False)
                )
              )
            )
            (1): ResidualConnectionModule(
              (module): MultiHeadedSelfAttentionModule(
                (positional_encoding): PositionalEncoding()
                (layer_norm): LayerNorm((512,), eps=1e-05, elementwise_affine=True)
                (attention): RelativeMultiHeadAttention(
                  (query_proj): Linear(
                    (linear): Linear(in_features=512, out_features=512, bias=True)
                  )
                  (key_proj): Linear(
                    (linear): Linear(in_features=512, out_features=512, bias=True)
                  )
                  (value_proj): Linear(
                    (linear): Linear(in_features=512, out_features=512, bias=True)
                  )
                  (pos_proj): Linear(
                    (linear): Linear(in_features=512, out_features=512, bias=False)
                  )
                  (dropout): Dropout(p=0.1, inplace=False)
                  (out_proj): Linear(
                    (linear): Linear(in_features=512, out_features=512, bias=True)
                  )
                )
                (dropout): Dropout(p=0.1, inplace=False)
              )
            )
            (2): ResidualConnectionModule(
              (module): ConformerConvModule(
                (sequential): Sequential(
                  (0): LayerNorm((512,), eps=1e-05, elementwise_affine=True)
                  (1): Transpose()
                  (2): PointwiseConv1d(
                    (conv): Conv1d(512, 1024, kernel_size=(1,), stride=(1,))
                  )
                  (3): GLU()
                  (4): DepthwiseConv1d(
                    (conv): Conv1d(512, 512, kernel_size=(31,), stride=(1,), padding=(15,), groups=512, bias=False)
                  )
                  (5): BatchNorm1d(512, eps=1e-05, momentum=0.1, affine=True, track_running_stats=True)
                  (6): Swish()
                  (7): PointwiseConv1d(
                    (conv): Conv1d(512, 512, kernel_size=(1,), stride=(1,))
                  )
                  (8): Dropout(p=0.1, inplace=False)
                )
              )
            )
            (3): ResidualConnectionModule(
              (module): FeedForwardModule(
                (sequential): Sequential(
                  (0): LayerNorm((512,), eps=1e-05, elementwise_affine=True)
                  (1): Linear(
                    (linear): Linear(in_features=512, out_features=2048, bias=True)
                  )
                  (2): Swish()
                  (3): Dropout(p=0.1, inplace=False)
                  (4): Linear(
                    (linear): Linear(in_features=2048, out_features=512, bias=True)
                  )
                  (5): Dropout(p=0.1, inplace=False)
                )
              )
            )
            (4): LayerNorm((512,), eps=1e-05, elementwise_affine=True)
          )
        )
      )
    )
    (fc): Linear(
      (linear): Linear(in_features=512, out_features=29, bias=False)
    )
  )
)
Num Model Parameters 122288384
spectrograms size: torch.Size([50, 1, 128, 1327])
spectrograms: tensor([[[[0.0000e+00, 0.0000e+00, 0.0000e+00,  ..., 0.0000e+00,
           0.0000e+00, 0.0000e+00],
          [2.0837e-03, 6.0273e-05, 5.0009e-04,  ..., 0.0000e+00,
           0.0000e+00, 0.0000e+00],
          [1.1219e-02, 3.2453e-04, 2.6926e-03,  ..., 0.0000e+00,
…
